…
nprint(f'Parameter count: {sum(p.numel() for p in model.parameters())}')\n\n# Test forward pass\ndummy = model_mod.dummy_inputs(batch_size=2)\nprint(f'Input shape: {dummy.shape}')\nout = model(dummy)\nprint(f'Output shape: {out.shape}')\n\n# Test ratio2filtersize\nc = model_mod.ratio2filtersize(dummy, 1/6)\nprint(f'ratio2filtersize(1/6) = {c}')\n\" 2>&1",
        "description": "Verify model import and forward pass"
      },
      "tool_call_id": "call_00_P0g9nCA4tsF1cQjzBroG3416",
      "tool_result": "Model created: DeepJSCC(\n  (encoder): _Encoder(\n    (conv1): _ConvWithPReLU(\n      (conv): Conv2d(3, 16, kernel_size=(3, 3), stride=(2, 2), padding=(1, 1))\n      (prelu): PReLU(num_parameters=1)\n    )\n    (mb_block1): _InvertedResidual(\n      (conv): Sequential(\n        (0): Conv2d(16, 48, kernel_size=(1, 1), stride=(1, 1), bias=False)\n        (1): PReLU(num_parameters=1)\n        (2): Conv2d(48, 48, kernel_size=(3, 3), stride=(2, 2), padding=(1, 1), groups=48, bias=False)\n        (3): PReLU(num_parameters=1)\n        (4): Conv2d(48, 32, kernel_size=(1, 1), stride=(1, 1), bias=False)\n      )\n    )\n    (mb_block2): _InvertedResidual(\n      (conv): Sequential(\n        (0): Conv2d(32, 96, kernel_size=(1, 1), stride=(1, 1), bias=False)\n        (1): PReLU(num_parameters=1)\n        (2): Conv2d(96, 96, kernel_size=(3, 3), stride=(1, 1), padding=(1, 1), groups=96, bias=False)\n        (3): PReLU(num_parameters=1)\n        (4): Conv2d(96, 32, kernel_size=(1, 1), stride=(1, 1), bias=False)\n      )\n    )\n    (mb_block3): _InvertedResidual(\n      (conv): Sequential(\n        (0): Conv2d(32, 96, kernel_size=(1, 1), stride=(1, 1), bias=False)\n        (1): PReLU(num_parameters=1)\n        (2): Conv2d(96, 96, kernel_size=(3, 3), stride=(1, 1), padding=(1, 1), groups=96, bias=False)\n        (3): PReLU(num_parameters=1)\n        (4): Conv2d(96, 32, kernel_size=(1, 1), stride=(1, 1), bias=False)\n      )\n    )\n    (conv5): _ConvWithPReLU(\n      (conv): Conv2d(32, 32, kernel_size=(3, 3), stride=(1, 1), padding=(1, 1))\n      (prelu): PReLU(num_parameters=1)\n    )\n    (se): _SEBlock(\n      (gap): AdaptiveAvgPool2d(output_size=1)\n      (fc1): Linear(in_features=32, out_features=4, bias=True)\n      (relu): ReLU(inplace=True)\n      (fc2): Linear(in_features=4, out_features=32, bias=True)\n      (sigmoid): Sigmoid()\n    )\n  )\n  (channel): Channel()\n  (decoder): _Decoder(\n    (conv1): _ConvWithPReLU(\n      (conv): Conv2d(32, 32, kernel_size=(3, 3), stride=(1, 1), padding=(1, 1))\n      (prelu): PReLU(num_parameters=1)\n    )\n    (conv2): _ConvWithPReLU(\n      (conv): Conv2d(32, 32, kernel_size=(3, 3), stride=(1, 1), padding=(1, 1))\n      (prelu): PReLU(num_parameters=1)\n    )\n    (conv3): _ConvWithPReLU(\n      (conv): Conv2d(32, 32, kernel_size=(3, 3), stride=(1, 1), padding=(1, 1))\n      (prelu): PReLU(num_parameters=1)\n    )\n    (up4): Upsample(scale_factor=2.0, mode=bilinear)\n    (conv4): _ConvWithPReLU(\n      (conv): Conv2d(48, 16, kernel_size=(3, 3), stride=(1, 1), padding=(1, 1))\n      (prelu): PReLU(num_parameters=1)\n    )\n    (up5): Upsample(scale_factor=2.0, mode=bilinear)\n    (conv5): Sequential(\n      (0): Conv2d(16, 3, kernel_size=(3, 3), stride=(1, 1), padding=(1, 1))\n      (1): Sigmoid()\n    )\n  )\n)\nParameter count: 61859\nInput shape: torch.Size([2, 3, 32, 32])\nOutput shape: torch.Size([2, 3, 32, 32])\nratio2filtersize(1/6) = 8\n"
    },
    {
      "tool_name": "glob",
      "tool_args": {
        "pattern": "**/simple-nas/workflows/**/_nas_entry.py",
        "path": "/Users/mozzie/Desktop/Projects/AgentHarness"
…
